model/lif_snn_mnist.ckpt (torch_old, 46570 bytes, 1 tensors)

weight f4 [10, 784]
0	0xbd26a1b8	-0.04068157
1	0xbabe83bb	-0.0014535108
2	0xbd06d2e6	-0.032915972
3	0xbd2cc8e3	-0.042183768
4	0xbd412395	-0.047153074
5	0xbc5c45af	-0.013444348
6	0xbb9443d0	-0.0045246854
7	0xbd8630d5	-0.06552283
8	0xbd569127	-0.05238452
9	0xbd6268f3	-0.05527587
10	0x3b69b98d	0.0035663575
11	0x3c73d53a	0.01488238
12	0xbd92a2a8	-0.071599305
13	0xbd450a9b	-0.048105817
14	0xbc8b8261	-0.017029943
15	0x3ca2a5c9	0.019854443
16	0xbd0fe9c5	-0.03513505
17	0xbc6ca376	-0.014443269
18	0xbc9a138c	-0.018808149
19	0xbd030cba	-0.03199456
20	0xbc9ffc36	-0.019529443
21	0xbd02106f	-0.031753954
22	0xbd136479	-0.03598449
23	0xbc87992a	-0.016552527
24	0xbb50bb90	-0.0031850077
25	0xbc1cb16a	-0.009563783
26	0xbcb9dd00	-0.022688389
27	0xbccce628	-0.02501209
28	0xbc64d228	-0.013966121
29	0xbc9ddd3e	-0.019270536
30	0xbd186b35	-0.037211616
31	0xbc86af53	-0.016441023
32	0xbd926ab0	-0.07149255
33	0xbc9ad9c4	-0.018902667
34	0xbdb2047a	-0.0869226
35	0xbdd5be60	-0.10436702
36	0xbe100706	-0.14065179
37	0xbe9d0919	-0.30671003
38	0xbeb334a9	-0.35001114
39	0xbe8b0262	-0.27150255
40	0xbe8841c1	-0.26612666
41	0xbecc7fe0	-0.3994131
42	0xbeae784b	-0.3407615
43	0xbe98987f	-0.29803845
44	0xbe9fac3c	-0.31186092
45	0xbeb396cf	-0.35075995
46	0xbe65b87b	-0.22433655
47	0xbdf7fda5	-0.12108926
48	0xbe3d7d7b	-0.18504898
49	0xbe0028cc	-0.12515563
50	0xbe091619	-0.13387336
51	0xbe0407bc	-0.12893575
52	0x3cb1b9a5	0.021694968
53	0xbd13c4d8	-0.036076397
54	0xbcde1742	-0.0271107
55	0xbcb3b199	-0.021935271
56	0xbccdac3a	-0.025106538
57	0xbc86d2b7	-0.016457899
58	0xbd89efc0	-0.06735182
59	0xbd225387	-0.03963044
60	0xbe1e04cd	-0.15431519
61	0xbe4606e6	-0.19338569
62	0xbe5bb281	-0.21454813
63	0xbe465472	-0.19368151
64	0xbe8b88a3	-0.27252683
65	0xbed6279b	-0.41827092
66	0xbf00b349	-0.5027357
67	0xbf1dd032	-0.61645806
68	0xbf633436	-0.8875154
69	0xbf0e38e6	-0.5555557
70	0xbf090e76	-0.5353769
71	0xbefbc57d	-0.4917411
72	0xbef99e52	-0.487536
73	0xbf0e83f5	-0.556701
74	0xbf230e5c	-0.63693786
75	0xbf1f58a3	-0.62244624
76	0xbef2e486	-0.47439975
77	0xbeaf76a3	-0.342702
78	0xbeb32439	-0.34988573
79	0xbe670350	-0.22559857
80	0xbe245b71	-0.16050507
81	0xbe2dbaca	-0.16965786
82	0xbc1f0884	-0.00970662
83	0xbc94cf82	-0.018165354
84	0xbc56e3d9	-0.013115847
85	0xbcb251ad	-0.021767462
86	0xbdc0d041	-0.09414721
87	0xbe11687e	-0.14200017
88	0xbe4eb8ab	-0.20187633
89	0xbe7c374e	-0.24630472
90	0xbe66c329	-0.22535385
91	0xbeb77a98	-0.3583572
92	0xbee97b3c	-0.45601833
93	0xbe492920	-0.19644594
94	0xbe89b69b	-0.2689713
95	0xbe816a8f	-0.2527661
96	0xbda5c333	-0.08093872
97	0xbe104e64	-0.14092404
98	0xbf2bb150	-0.6706743
99	0xbf1d1d79	-0.61373097
100	0xbf2f855b	-0.6856286
101	0xbc72f9ce	-0.014830066
102	0xbc354963	-0.01106486
103	0xbf26a962	-0.6510221
104	0xbf0d8614	-0.5528271
105	0xbf02930c	-0.51005626
106	0xbf07203d	-0.52783567
107	0xbeb0784c	-0.3446678
108	0xbea0c08b	-0.313969
109	0xbe59d63b	-0.21273129
110	0xbd581911	-0.05275828
111	0xbd07d34a	-0.033160485
112	0xbd0ad2d3	-0.033892464
113	0xbd322718	-0.043494314
114	0xbe19b514	-0.15010482
115	0xbe7bff71	-0.24609162
116	0xbeb268e7	-0.3484566
117	0xbefb35ae	-0.49064392
118	0xbf073ac3	-0.5282404
119	0xbf34d789	-0.7064138
120	0xbf5f7798	-0.8729186
121	0xbe955b93	-0.29171428
122	0xbeac5fb6	-0.33666772
123	0xbc8b6996	-0.01701812
124	0xba79bbda	-0.0009526588
125	0xbd07233e	-0.032992594
126	0xbdf1eb03	-0.11812403
127	0x3c6dc4d1	0.014512257
128	0x3d072626	0.032995366
129	0xbad870c1	-0.0016513095
130	0x3baca13a	0.005268243
131	0xbd295548	-0.041341096
132	0xbcd16a44	-0.025563367
133	0xbeebcb66	-0.46053618
134	0xbec3bace	-0.38228458
135	0xbe8fa484	-0.28055203
136	0xbe6fa17d	-0.23401447
137	0xbe76ab45	-0.24088772
138	0xbe25133a	-0.16120616
139	0xbd3c6644	-0.045995966
140	0xbca7eed6	-0.020499628
141	0xbd02b4d5	-0.031910736
142	0xbe839530	-0.2569976
143	0xbe6c3126	-0.23065624
144	0xbf005f1e	-0.5014514
145	0xbf6a257e	-0.9146346
146	0xbdce9e38	-0.100887716
147	0xbc8b6f4a	-0.01702084
148	0x3d095d3d	0.033536185
149	0xbc69636c	-0.014244895
150	0x3bcedbc5	0.0063128197
151	0x3ca60a58	0.020268604
152	0x3c690ab6	0.014223745
153	0x3c9e68fd	0.019337172
154	0x3d6c087a	0.05762527
155	0x3d486efd	0.04893397
156	0x3cce80fd	0.02520799
157	0x3caf8a29	0.021428185
158	0x3d977435	0.073952116
159	0x3cfe150c	0.031015895
160	0x3d17478b	0.036933463
161	0x3d222a63	0.039591204
162	0xbc58e38d	-0.013237846
163	0xbb00cd9d	-0.0019653805
164	0xbeffdcbe	-0.499731
165	0xbefe87e9	-0.49713066
166	0xbf14794b	-0.5799758
167	0xbd801265	-0.062535085
168	0xbcb8c746	-0.022555958
169	0xbd8ca652	-0.068676606
170	0xbe5ef534	-0.21773225
171	0xbea30ba2	-0.31844813
172	0xbf19529a	-0.59891665
173	0xbed1a395	-0.40945116
174	0xbd4b9586	-0.049703144
175	0xbd07c9a8	-0.0331513
176	0x3d2ef43e	0.042713396
177	0x3d5a7a05	0.053339023
178	0x3ca8d44d	0.020609045
179	0x3d2d8d65	0.042371172
180	0x3d7ab0a1	0.061203603
181	0x3dc2a837	0.09504741
182	0x3de822b8	0.11334747
183	0x3d74ef50	0.05979854
184	0x3d583b63	0.05279101
185	0x3ce0cdc2	0.027441863
186	0x3d96afea	0.07357772
187	0x3c6e3278	0.0145384
188	0x3d3f1182	0.046647556
189	0x3d18c392	0.037295885
190	0x3ae4fda6	0.0017470613
191	0xbc9cb7d1	-0.01913062
192	0xbef4b3d0	-0.47793436
193	0xbf0588cc	-0.5216186
194	0xbec224ac	-0.37918603
195	0xbd5d079c	-0.053962335
196	0xbd49ee94	-0.04929979
197	0xbe70dfd6	-0.23522887
198	0xbe49b429	-0.19697632
199	0xbeceeeb9	-0.40416506
200	0xbf275bdf	-0.6537456
201	0xbdd8a207	-0.10577779
202	0xbce12f0a	-0.02748825
203	0xbd234b58	-0.039866775
204	0x3bd3ca5b	0.0064633316
205	0x3cf49ea3	0.0298608
206	0x3d8d5c7d	0.06902406
207	0x3cc28c01	0.0237484
208	0x3d10addd	0.03532206
209	0x3dd044e0	0.10169387
210	0x3d790e8e	0.060804896
211	0x3ce101c7	0.027466668
212	0x3d41dab8	0.047327727
213	0x3dd428ce	0.103593454
214	0x3ca9522d	0.020669067
215	0x3d86262c	0.065502495
216	0x3d7b2286	0.06131222
217	0x3d26a37b	0.04068325
218	0x3d2846ca	0.041083135
219	0x3bc2bf30	0.0059432015
220	0xbe86dd2d	-0.2634062
221	0xbf05b759	-0.5223289
222	0xbeb3f95a	-0.35151178
223	0xbd946a8a	-0.07246883
224	0x3cefb121	0.029259266
225	0xbe494c03	-0.19657902
226	0xbe6d49f4	-0.23172742
227	0xbec64d24	-0.3873073
228	0xbf35a242	-0.7095071
229	0xbdbd9ff4	-0.09259024
230	0xbd5c9bc3	-0.053859483
231	0x3c9c65e5	0.019091556
232	0x3c84315f	0.016136823
233	0x3d96f216	0.07370393
234	0x3daef5ba	0.08542962
235	0x3c804fe7	0.0156631
236	0x3d201a50	0.039087594
237	0x3d99a52f	0.075022094
238	0x3d720554	0.059087113
239	0x3d8d57ed	0.06901536
240	0x3da1ae75	0.07894603
241	0x3d589d16	0.052884184
242	0x3d9bfc6a	0.076165035
243	0x3c0dac21	0.008646996
244	0x3d67daf7	0.056605306
245	0x3ba0d562	0.0049082497
246	0x3bd2aaae	0.006429038
247	0x3d05dea5	0.032683033
248	0xbe719696	-0.235926
249	0xbe83edb0	-0.2576728
250	0xbedc5e67	-0.43040773
251	0xbdaf3440	-0.08554888
252	0xbd3c0223	-0.045900475
253	0xbe4cfbce	-0.20017931
254	0xbe62ee0a	-0.22161117
255	0xbec3ab62	-0.38216692
